7767517
106 118
Input                    in0                      0 1 in0
Convolution              conv_3                   1 1 in0 1 0=128 1=3 11=3 12=1 13=1 14=1 2=1 3=1 4=1 5=1 6=3456
Split                    splitncnn_0              1 2 1 2 3
GroupNorm                gn_31                    1 1 3 4 0=32 1=128 2=1.000000e-06 3=1
Swish                    silu_54                  1 1 4 5
Convolution              conv_4                   1 1 5 6 0=128 1=3 11=3 12=1 13=1 14=1 2=1 3=1 4=1 5=1 6=147456
GroupNorm                gn_32                    1 1 6 7 0=32 1=128 2=1.000000e-06 3=1
Swish                    silu_55                  1 1 7 8
Convolution              conv_5                   1 1 8 9 0=128 1=3 11=3 12=1 13=1 14=1 2=1 3=1 4=1 5=1 6=147456
BinaryOp                 add_0                    2 1 2 9 10 0=0
Split                    splitncnn_1              1 2 10 11 12
GroupNorm                gn_33                    1 1 12 13 0=32 1=128 2=1.000000e-06 3=1
Swish                    silu_56                  1 1 13 14
Convolution              conv_6                   1 1 14 15 0=128 1=3 11=3 12=1 13=1 14=1 2=1 3=1 4=1 5=1 6=147456
GroupNorm                gn_34                    1 1 15 16 0=32 1=128 2=1.000000e-06 3=1
Swish                    silu_57                  1 1 16 17
Convolution              conv_7                   1 1 17 18 0=128 1=3 11=3 12=1 13=1 14=1 2=1 3=1 4=1 5=1 6=147456
BinaryOp                 add_1                    2 1 11 18 19 0=0
Padding                  pad_0                    1 1 19 20 0=0 1=1 2=0 3=1 4=0 5=0.000000e+00 6=0
Convolution              conv_8                   1 1 20 21 0=128 1=3 11=3 12=1 13=2 14=0 2=1 3=2 4=0 5=1 6=147456
Split                    splitncnn_2              1 2 21 22 23
GroupNorm                gn_35                    1 1 23 24 0=32 1=128 2=1.000000e-06 3=1
Swish                    silu_58                  1 1 24 25
Convolution              conv_9                   1 1 25 26 0=256 1=3 11=3 12=1 13=1 14=1 2=1 3=1 4=1 5=1 6=294912
GroupNorm                gn_36                    1 1 26 27 0=32 1=256 2=1.000000e-06 3=1
Convolution              conv_11                  1 1 22 28 0=256 1=1 11=1 12=1 13=1 14=0 2=1 3=1 4=0 5=1 6=32768
Swish                    silu_59                  1 1 27 29
Convolution              conv_10                  1 1 29 30 0=256 1=3 11=3 12=1 13=1 14=1 2=1 3=1 4=1 5=1 6=589824
BinaryOp                 add_2                    2 1 28 30 31 0=0
Split                    splitncnn_3              1 2 31 32 33
GroupNorm                gn_37                    1 1 33 34 0=32 1=256 2=1.000000e-06 3=1
Swish                    silu_60                  1 1 34 35
Convolution              conv_12                  1 1 35 36 0=256 1=3 11=3 12=1 13=1 14=1 2=1 3=1 4=1 5=1 6=589824
GroupNorm                gn_38                    1 1 36 37 0=32 1=256 2=1.000000e-06 3=1
Swish                    silu_61                  1 1 37 38
Convolution              conv_13                  1 1 38 39 0=256 1=3 11=3 12=1 13=1 14=1 2=1 3=1 4=1 5=1 6=589824
BinaryOp                 add_3                    2 1 32 39 40 0=0
Padding                  pad_1                    1 1 40 41 0=0 1=1 2=0 3=1 4=0 5=0.000000e+00 6=0
Convolution              conv_14                  1 1 41 42 0=256 1=3 11=3 12=1 13=2 14=0 2=1 3=2 4=0 5=1 6=589824
Split                    splitncnn_4              1 2 42 43 44
GroupNorm                gn_39                    1 1 44 45 0=32 1=256 2=1.000000e-06 3=1
Swish                    silu_62                  1 1 45 46
Convolution              conv_15                  1 1 46 47 0=512 1=3 11=3 12=1 13=1 14=1 2=1 3=1 4=1 5=1 6=1179648
GroupNorm                gn_40                    1 1 47 48 0=32 1=512 2=1.000000e-06 3=1
Convolution              conv_17                  1 1 43 49 0=512 1=1 11=1 12=1 13=1 14=0 2=1 3=1 4=0 5=1 6=131072
Swish                    silu_63                  1 1 48 50
Convolution              conv_16                  1 1 50 51 0=512 1=3 11=3 12=1 13=1 14=1 2=1 3=1 4=1 5=1 6=2359296
BinaryOp                 add_4                    2 1 49 51 52 0=0
Split                    splitncnn_5              1 2 52 53 54
GroupNorm                gn_41                    1 1 54 55 0=32 1=512 2=1.000000e-06 3=1
Swish                    silu_64                  1 1 55 56
Convolution              conv_18                  1 1 56 57 0=512 1=3 11=3 12=1 13=1 14=1 2=1 3=1 4=1 5=1 6=2359296
GroupNorm                gn_42                    1 1 57 58 0=32 1=512 2=1.000000e-06 3=1
Swish                    silu_65                  1 1 58 59
Convolution              conv_19                  1 1 59 60 0=512 1=3 11=3 12=1 13=1 14=1 2=1 3=1 4=1 5=1 6=2359296
BinaryOp                 add_5                    2 1 53 60 61 0=0
Padding                  pad_2                    1 1 61 62 0=0 1=1 2=0 3=1 4=0 5=0.000000e+00 6=0
Convolution              conv_20                  1 1 62 63 0=512 1=3 11=3 12=1 13=2 14=0 2=1 3=2 4=0 5=1 6=2359296
Split                    splitncnn_6              1 2 63 64 65
GroupNorm                gn_43                    1 1 65 66 0=32 1=512 2=1.000000e-06 3=1
Swish                    silu_66                  1 1 66 67
Convolution              conv_21                  1 1 67 68 0=512 1=3 11=3 12=1 13=1 14=1 2=1 3=1 4=1 5=1 6=2359296
GroupNorm                gn_44                    1 1 68 69 0=32 1=512 2=1.000000e-06 3=1
Swish                    silu_67                  1 1 69 70
Convolution              conv_22                  1 1 70 71 0=512 1=3 11=3 12=1 13=1 14=1 2=1 3=1 4=1 5=1 6=2359296
BinaryOp                 add_6                    2 1 64 71 72 0=0
Split                    splitncnn_7              1 2 72 73 74
GroupNorm                gn_45                    1 1 74 75 0=32 1=512 2=1.000000e-06 3=1
Swish                    silu_68                  1 1 75 76
Convolution              conv_23                  1 1 76 77 0=512 1=3 11=3 12=1 13=1 14=1 2=1 3=1 4=1 5=1 6=2359296
GroupNorm                gn_46                    1 1 77 78 0=32 1=512 2=1.000000e-06 3=1
Swish                    silu_69                  1 1 78 79
Convolution              conv_24                  1 1 79 80 0=512 1=3 11=3 12=1 13=1 14=1 2=1 3=1 4=1 5=1 6=2359296
BinaryOp                 add_7                    2 1 73 80 81 0=0
Split                    splitncnn_8              1 2 81 82 83
GroupNorm                gn_47                    1 1 83 84 0=32 1=512 2=1.000000e-06 3=1
Swish                    silu_70                  1 1 84 85
Convolution              conv_25                  1 1 85 86 0=512 1=3 11=3 12=1 13=1 14=1 2=1 3=1 4=1 5=1 6=2359296
GroupNorm                gn_48                    1 1 86 87 0=32 1=512 2=1.000000e-06 3=1
Swish                    silu_71                  1 1 87 88
Convolution              conv_26                  1 1 88 89 0=512 1=3 11=3 12=1 13=1 14=1 2=1 3=1 4=1 5=1 6=2359296
BinaryOp                 add_8                    2 1 82 89 90 0=0
Split                    splitncnn_9              1 2 90 91 92
GroupNorm                gn_49                    1 1 92 93 0=32 1=512 2=1.000000e-06 3=1
Reshape                  view_76                  1 1 93 94 0=1024 1=512
Permute                  transpose_78             1 1 94 95 0=1
MultiHeadAttention       attention_53             1 1 95 96 0=512 1=1 2=262144 3=512 4=512
Permute                  transpose_79             1 1 96 97 0=1
Reshape                  reshape_75               1 1 97 98 0=32 1=32 2=512
BinaryOp                 add_9                    2 1 98 91 99 0=0
Split                    splitncnn_10             1 2 99 100 101
GroupNorm                gn_50                    1 1 101 102 0=32 1=512 2=1.000000e-06 3=1
Swish                    silu_72                  1 1 102 103
Convolution              conv_27                  1 1 103 104 0=512 1=3 11=3 12=1 13=1 14=1 2=1 3=1 4=1 5=1 6=2359296
GroupNorm                gn_51                    1 1 104 105 0=32 1=512 2=1.000000e-06 3=1
Swish                    silu_73                  1 1 105 106
Convolution              conv_28                  1 1 106 107 0=512 1=3 11=3 12=1 13=1 14=1 2=1 3=1 4=1 5=1 6=2359296
BinaryOp                 add_10                   2 1 100 107 108 0=0
GroupNorm                gn_52                    1 1 108 109 0=32 1=512 2=1.000000e-06 3=1
Swish                    silu_74                  1 1 109 110
Convolution              conv_29                  1 1 110 111 0=8 1=3 11=3 12=1 13=1 14=1 2=1 3=1 4=1 5=1 6=36864
Convolution              conv_30                  1 1 111 112 0=8 1=1 11=1 12=1 13=1 14=0 2=1 3=1 4=0 5=1 6=64
Slice                    chunk_0                  1 2 112 out0 114 -23300=2,-233,-233 1=0
Clip                     clamp_77                 1 1 114 115 0=-3.000000e+01 1=2.000000e+01
BinaryOp                 mul_11                   1 1 115 116 0=2 1=1 2=5.000000e-01
UnaryOp                  exp_12                   1 1 116 out1 0=7
